SURF/S_params_vertical.npy (npy, 374128 bytes, 1 tensors)

array f8 [50, 55, 17]
0	0x406c7bcb2d7bddb8	227.8685519618282
1	0x401cc68ec86596dd	7.193904048157234
2	0x40e9c7ed7dc1c6e9	52799.42160118913
3	0xbf8d681b865910ef	-0.014358725583527547
4	0xbfcb977bdd887c48	-0.21556042019889987
5	0x407580a19b10fbd7	344.03945452341344
6	0x40323459bde8e03c	18.204494351725074
7	0x40e9df3150b74151	52985.54110300786
8	0x3fbcc16489247fb7	0.11232593868453376
9	0x3fa0b30e88c1dffd	0.03261609477425507
10	0xbfc1be6448d9803f	-0.1386227946959497
11	0xc0078276b21d0e82	-2.9387029566876786
12	0x3ffa7ace515c0faf	1.6549819162473616
13	0x3fefffd65e48fcea	0.9999801484590567
14	0x3fc1fe519830887f	0.14057369166500064
15	0x3fb5374e01e68afc	0.08287513300323818
16	0x3fd37b14840764ed	0.304387215551812
17	0x406c7bcb794af490	227.8685881103488
18	0x401cc6938a5c6c26	7.1939221972379865
19	0x40e9c7ed7dc9eec3	52799.42160507806
20	0xbf8d1559fafa6dde	-0.014200880977390303
21	0xbfcb8395bcca1459	-0.21495315283042052
22	0x407580a1e1ea3bdb	344.03952208993513
23	0x4032345a61f2db47	18.204504129210616
24	0x40e9df3150c806d7	52985.54111100517
25	0x3fbcc20837b34fac	0.11233569488405121
26	0x3fa091fa154c6714	0.032363715267093834
27	0xbfc1be472695869b	-0.13861932167042287
28	0xc0078276b8395340	-2.9387030022138845
29	0x3ffa7ad192fe069a	1.6549850217710742
30	0x3fefff6b18f1e1ba	0.9999289977268326
31	0x3fc1fe519830887f	0.14057369166500064
32	0x3fb5374e01e68afc	0.08287513300323818
33	0x3fd37b14840764ed	0.304387215551812
34	0x406c7bcc07d319ca	227.86865607481587
35	0x401cc69e0b7490db	7.193962267865767
36	0x40e9c7ed7de2fe29	52799.42161702767
37	0xbf8c8680da2e3e6b	-0.013928419741005634
38	0xbfcb741dfee88d6e	-0.2144811148328744
39	0x407580a27d06c9cd	344.0396700158279
40	0x4032345b7f5f4da4	18.2045211417841
41	0x40e9df3150e6db71	52985.54112570629
42	0x3fbccc30e71a5bd3	0.11249070779955099
43	0x3fa071204665bc13	0.032113083451683753
44	0xbfc1be1e05e60789	-0.13861441886916406
45	0xc00782794ff24915	-2.938707947331873
46	0x3ffa7ad80e40ee75	1.6549912030012852
47	0x3fefff1781d00a3f	0.9998891387370533
48	0x3fc1fe519830887f	0.14057369166500064
49	0x3fb5374e01e68afc	0.08287513300323818
50	0x3fd37b14840764ed	0.304387215551812
51	0x406c7bcf88cb8abb	227.86908378366738
52	0x401cc6d6c0bb3005	7.194178592133544
53	0x40e9c7ed7e7f0ee0	52799.4216914454
54	0xbf8a063ab212806d	-0.012707193908056713
55	0xbfcb7f8bb579a9c6	-0.2148298870191196
56	0x407580a566787c61	344.04038092675006
57	0x40323460546504d3	18.204594874060444
58	0x40e9df31516cb0de	52985.54118952317
59	0x3fbd15462d4fb91c	0.11360586744533346
60	0x3fa047f188749eb2	0.031798885256930545
61	0xbfc1bda5989be92c	-0.1386000628625167
62	0xc00782913280cf5f	-2.9387535043296533
63	0x3ffa7af789e58b15	1.6550212275112177
64	0x3feffed2718742bc	0.9998562066412755
65	0x3fc1fe519830887f	0.14057369166500064
66	0x3fb5374e01e68afc	0.08287513300323818
67	0x3fd37b14840764ed	0.304387215551812
68	0x406c7bd17c545bd7	227.86932198025053
69	0x401cc70fc0d0e2f3	7.194396031140729
70	0x40e9c7ed7f070edb	52799.42175629522
71	0xbf87d564bc7834f5	-0.011637484552034819
72	0xbfcb80862d978f1e	-0.21485974527524204
73	0x407580a82a6ee72d	344.0410560924673
74	0x40323464d5e3d364	18.204663627740402
75	0x40e9df3151db9e5b	52985.54124241761
76	0x3fbd44e2438d2f33	0.1143323340340288
77	0x3fa0095810c96eba	0.031321289109397424
78	0xbfc1bd3b5da7fa4e	-0.13858739922575797
79	0xc00782a881249913	-2.93879795926035
80	0x3ffa7b16a446d02f	1.6550508896880378
81	0x3feffe7d9d02766b	0.9998157564729814
82	0x3fc1fe519830887f	0.14057369166500064
83	0x3fb5374e01e68afc	0.08287513300323818
84	0x3fd37b14840764ed	0.304387215551812
85	0x406c7bd6b6a86718	227.86996014491228
86	0x401cc77dce1ffbf1	7.194815846159131
87	0x40e9c7ed7ffb6d79	52799.42187281972
88	0xbf83c0a0dfef3122	-0.009644753297742673
89	0xbfcb8434b2075ee4	-0.21497210209667295
90	0x407580ac6d10e06b	344.04209620087084
91	0x4032346ce1a70857	18.204786399154127
92	0x40e9df315288e912	52985.541325049606
93	0x3fbd8076fa32b23c	0.11524146660185236
94	0x3f9f26e31551429f	0.03042177980052207
95	0xbfc1bca8c0077ef1	-0.1385699212687466
96	0xc00782d94b9dfbf4	-2.93889102054481
97	0x3ffa7b4f3ef2707b	1.6551048716419519
98	0x3feffdbc06961c92	0.9997234467163187
99	0x3fc1fe519830887f	0.14057369166500064
100	0x3fb5374e01e68afc	0.08287513300323818
101	0x3fd37b14840764ed	0.304387215551812
102	0x406c7bd67a712cd5	227.8699314318134
103	0x401cc852ceeb1989	7.1956283884995935
104	0x40e9c7ee26848776	52799.442201866696
105	0xbf83304a6e9be10c	-0.009369451046481923
106	0xbfcb85e9455c62f7	-0.21502414595376937
107	0x407580ab42d8620a	344.04181179546924
108	0x4032347dce09f5b7	18.20504462950859
109	0x40e9df3130daa76f	52985.53721363737
110	0x3fbd7fe5c7f174b5	0.115232812227492
111	0x3f9ea319b9b17fce	0.029919053992102644
112	0xbfc1c7e3ddb39231	-0.13891266179338538
113	0xc0078597b14b28e6	-2.9402307368337572
114	0x3ffa8bf6ab3a30e2	1.6591707886282667
115	0x3fefeeb65a6e34d6	0.9978896871777134
116	0x3fc1fe519830887f	0.14057369166500064
117	0x3fb5374e01e68afc	0.08287513300323818
118	0x3fd37b14840764ed	0.304387215551812
119	0x406c7bd978f5cad7	227.8702969360954
120	0x401cc882364b9611	7.195809219706931
121	0x40e9c7ee26e63f0a	52799.44224846184
122	0xbf81a0c6f32cdd9f	-0.008607439323539632
123	0xbfcb90cf639f0026	-0.21535675396262483
124	0x407580ac7b8ad6ff	344.0421100066596
125	0x403234810311e368	18.205093566767943
126	0x40e9df31310d4337	52985.53723776939
127	0x3fbd8d81020d6aa7	0.11544042873485215
128	0x3f9e63892cee10ab	0.02967657410364725
129	0xbfc1c7aa4349f5c7	-0.13890579495993746
130	0xc00785b057722bd7	-2.9402777511327076
131	0x3ffa8c0b236a08d3	1.6591903098456455
132	0x3fefee941e8f59c8	0.9978733631967822
133	0x3fc1fe519830887f	0.14057369166500064
134	0x3fb5374e01e68afc	0.08287513300323818
135	0x3fd37b14840764ed	0.304387215551812
136	0x406c7bdb6110cf86	227.8705296829541
137	0x401cc8aa62166b47	7.195962460153914
138	0x40e9c7ee2732ee54	52799.442285027966
139	0xbf8062eb10f4e1e1	-0.008001171545957088
140	0xbfcb8fcfbfb7850e	-0.21532627926993836
141	0x407580ad952f50f3	344.04237860186475
142	0x40323483cfbd8111	18.205136283651033
143	0x40e9df313137a54e	52985.53725797926
144	0x3fbd94e77a1173ae	0.11555334787540403
145	0x3f9e1278a534dd16	0.029367337306408357
146	0xbfc1c76a63b91084	-0.13889818066866522
147	0xc00785c4370c46c4	-2.940315656721255
148	0x3ffa8c1c7c3332b8	1.659206853061887
149	0x3fefee3c1430cb42	0.9978313822124181
150	0x3fc1fe519830887f	0.14057369166500064
151	0x3fb5374e01e68afc	0.08287513300323818
152	0x3fd37b14840764ed	0.304387215551812
153	0x406c7bdc168611e4	227.8706162088921
154	0x401cc8bd1029f4f8	7.196033718643996
155	0x40e9c7ee2757fec5	52799.442302701565
156	0xbf7fd167857a1913	-0.007768062954374838
157	0xbfcb98991d5ce72f	-0.21559442456946828
158	0x407580ae2405a17a	344.04251482200164
159	0x40323484fe8aa75d	18.205154332018868
160	0x40e9df3131487d5d	52985.537266011095
161	0x3fbd9a7f8d80c122	0.1156387062517337
162	0x3f9e09aa3806c69b	0.02933374373396323
163	0xbfc1c7514dca6fd5	-0.1388951902234782
164	0xc00785ce46d34de5	-2.940334847758765
165	0x3ffa8c244976ceca	1.659214293450463
166	0x3fefee3c32023add	0.9978314377529746
167	0x3fc1fe519830887f	0.14057369166500064
168	0x3fb5374e01e68afc	0.08287513300323818
169	0x3fd37b14840764ed	0.304387215551812
170	0x406c7bdcae21d9c4	227.87068850146727
171	0x401cc8d0168d732a	7.196106293090262
172	0x40e9c7ee27791073	52799.44231847012
173	0xbf7ec4bfd4942160	-0.007511853539888896
174	0xbfcb92395f574117	-0.21539990573229126
175	0x407580aec00e4c08	344.0426636274792
176	0x403234865d91b156	18.20517525488807
177	0x40e9df31315cd1fd	52985.537275705465
178	0x3fbd9bcba96925a1	0.11565850149158631
179	0x3f9dd451d4f16dd4	0.029130247709287918
180	0xbfc1c729384e3abf	-0.13889041184707726
181	0xc00785d7042452e8	-2.9403515170655403
182	0x3ffa8c2c9ba76717	1.659222229025948
183	0x3fefee222ab5ed50	0.9978190263931683
184	0x3fc1fe519830887f	0.14057369166500064
185	0x3fb5374e01e68afc	0.08287513300323818
186	0x3fd37b14840764ed	0.304387215551812
187	0x406c7bdda421ea2a	227.8708058035275
188	0x401cc8db6fefcab4	7.196149586687785
189	0x40e9c7ee278d6c07	52799.44232817744
190	0xbf7df709452fae24	-0.007315670215557488
191	0xbfcb8da2295f409b	-0.21525980968590805
192	0x407580aee8930faf	344.0427022690373
193	0x4032348729237cc6	18.205187388576427
194	0x40e9df3131663f8a	52985.53728020105
195	0x3fbd9974d064d1d0	0.1156228073858252
196	0x3f9db3ce1b64aa48	0.02900621454424826
197	0xbfc1c71b0c77e0d8	-0.13888872250368567
198	0xc00785dcf3bf3dd1	-2.940362839006163
199	0x3ffa8c30fff10621	1.6592264173235736
200	0x3fefeddf11eb1660	0.9977870321242328
201	0x3fc1fe519830887f	0.14057369166500064
202	0x3fb5374e01e68afc	0.08287513300323818
203	0x3fd37b14840764ed	0.304387215551812
204	0x406c7bebb88bb593	227.8725245217034
205	0x401cc991489fbad9	7.196843275784624
206	0x40e9c7ee28e9f004	52799.44249436262
207	0xbf7224823462b6b8	-0.004429348575440244
208	0xbfcba6e09543a04d	-0.21603019035615248
209	0x407580b1669b14ff	344.0433107431308
210	0x40323492f523fbdb	18.20536739471923
211	0x40e9df3131e312f8	52985.53733972268
212	0x3fbd8ff3db3298cb	0.11547779180054644
213	0x3f9cc1a3c2341118	0.028082426765665053
214	0xbfc1c67eb40f998c	-0.13887008468664097
215	0xc00786457ed630d0	-2.9405622395625883
216	0x3ffa8c737c4d2a4d	1.6592898231052857
217	0x3fefeb70459cf50f	0.9974900588637484
218	0x3fc1fe519830887f	0.14057369166500064
219	0x3fb5374e01e68afc	0.08287513300323818
220	0x3fd37b14840764ed	0.304387215551812
221	0x406c7bec42274795	227.87259013816643
222	0x401cc9ba32165c6d	7.19699934255105
223	0x40e9c7ee2929f76f	52799.44252489402
224	0xbf708f44c2afabbd	-0.004042881580043675
225	0xbfcba0e39a40fea2	-0.21584744483879087
226	0x407580b2a31d82c8	344.0436125901001
227	0x40323495fca5f2f0	18.205413618578802
228	0x40e9df313204e143	52985.537355842556
229	0x3fbd95fda523b9ff	0.11556992799498998
230	0x3f9c6a236e4ba892	0.02774863587084348
231	0xbfc1c60f0f3def27	-0.1388567757056702
232	0xc007865a19fc99dc	-2.940601542493125
233	0x3ffa8c8225ffb9f8	1.6593038067181833
234	0x3fefeb545f449511	0.9974767552090801
235	0x3fc1fe519830887f	0.14057369166500064
236	0x3fb5374e01e68afc	0.08287513300323818
237	0x3fd37b14840764ed	0.304387215551812
238	0x406c7bec45af5508	227.8725918220955
239	0x401cc9c2e9e8b748	7.19703259928594
240	0x40e9c7ee2939fe2e	52799.44253253598
241	0xbf7058b188c8ecf1	-0.003990834706708344
242	0xbfcbaae7fee3f004	-0.21615314431971921
243	0x407580b2ec745971	344.0436825318239
244	0x4032349683b0eed9	18.205421667763265
245	0x40e9df313209354b	52985.537357906425
246	0x3fbd9a34f5974e91	0.11563426013827384
247	0x3f9c76c3fcc6682a	0.027796804717219604
248	0xbfc1c5ff00ff86e7	-0.13885486172426129
249	0xc007865f70af1afa	-2.9406117251813813
250	0x3ffa8c84fdf19999	1.6593065185239537
251	0x3fefeb5484b8123e	0.9974768249672434
252	0x3fc1fe519830887f	0.14057369166500064
253	0x3fb5374e01e68afc	0.08287513300323818
254	0x3fd37b14840764ed	0.304387215551812
255	0x406c7bec9435de2d	227.87262926598615
