SURF/S_params_horizontal.npy (npy, 374128 bytes, 1 tensors)

array f8 [50, 55, 17]
00000000: b8dd 7b2d cb7b 6c40 dd96 65c8 8ec6 1c40
00000010: e9c6 c17d edc7 e940 ef10 5986 1b68 8dbf
00000020: 487c 88dd 7b97 cbbf d7fb 109b a180 7540
00000030: 3ce0 e8bd 5934 3240 5141 b750 31df e940
00000040: b77f 2489 64c1 bc3f fddf c188 0eb3 a03f
00000050: 3f80 d948 64be c1bf 820e 1db2 7682 07c0
00000060: af0f 5c51 ce7a fa3f eafc 485e d6ff ef3f
00000070: 7f88 3098 51fe c13f fc8a e601 4e37 b53f
00000080: ed64 0784 147b d33f 8354 f11c ec7b 6c40
00000090: 9aa2 ccfe f1f5 1c40 538e 9425 f2c7 e940
000000a0: fba2 6bcf 17a9 93bf c98d c2da be31 cbbf
000000b0: e364 cb8f 3a81 7540 d10a 4e79 e436 3240
000000c0: ad20 2ae6 24df e940 3d1d 9623 805c bf3f
000000d0: d1ef 2366 7d45 9f3f 40a7 7045 982a c1bf
000000e0: 42f2 482d 1c08 08c0 8f11 6df5 bfec fa3f
000000f0: 36ad cc6a b1fb ef3f 7f88 3098 51fe c13f
00000100: fc8a e601 4e37 b53f ed64 0784 147b d33f
00000110: 7c82 070d d87b 6c40 fe61 15df 2e19 1d40
00000120: 65b4 6971 16c8 e940 d740 99d2 fb0c a3bf
00000130: 9f10 abcf e6bf ccbf 5509 b0cb 5f81 7540
00000140: b35f c211 1841 3240 8d3f 16d1 25df e940
00000150: 591b 8a4f 76d6 be3f 433c d34b d7ce 7abf
00000160: d926 4279 e916 c0bf 992b 9714 159f 08c0
00000170: f767 5a08 b3ec fc3f b7cb c550 6a08 ee3f
00000180: 7f88 3098 51fe c13f fc8a e601 4e37 b53f
00000190: ed64 0784 147b d33f 0dc6 9991 f97b 6c40
000001a0: 815f 671a 5908 1d40 edce 8a60 16c8 e940
000001b0: c7ac c40a f42f a9bf 4a86 39f6 a514 cabf
000001c0: 3782 917e ee80 7540 d0d8 8ea7 e940 3240
000001d0: 7776 5fe7 25df e940 b0d7 60f5 7d02 be3f
000001e0: 8c1e 98a4 26f9 a73f aaab 7489 4bb0 c0bf
000001f0: 3e7a 0ff1 4b6b 08c0 56fd 8562 38ed fc3f
00000200: 3542 7e77 93d5 ed3f 7f88 3098 51fe c13f
00000210: fc8a e601 4e37 b53f ed64 0784 147b d33f
00000220: 9d6c 980e ea7b 6c40 3410 1937 7c02 1d40
00000230: 33ec 5e5c 16c8 e940 be53 895f f6e5 a5bf
00000240: dede 65e3 51b8 cabf 3e60 8c52 ea80 7540
00000250: 9d42 723f 3040 3240 0ce1 d5ff 25df e940
00000260: aa27 b1c2 a4d3 be3f 71f0 f89f 2993 a23f
00000270: f7d4 65d0 dd03 c1bf 06ac 2e80 e44c 08c0
00000280: 3b3b cf26 44ee fc3f c617 687e 989c ed3f
00000290: 7f88 3098 51fe c13f fc8a e601 4e37 b53f
000002a0: ed64 0784 147b d33f 1ebb 5323 d47b 6c40
000002b0: 479a 2c68 05fc 1c40 e529 e354 16c8 e940
000002c0: 6fb6 e64a d449 a6bf 9cfb 2187 cfbb cabf
000002d0: 25ed c8d1 db80 7540 3f80 24f4 773f 3240
000002e0: b5c5 f918 26df e940 8cb0 d9be 1f02 bf3f
000002f0: ae31 a0f2 eb24 a33f 910e 9303 6326 c1bf
00000300: a9ea 6bd7 412f 08c0 3352 47fe d6ee fc3f
00000310: 96ad 92b6 6571 ed3f 7f88 3098 51fe c13f
00000320: fc8a e601 4e37 b53f ed64 0784 147b d33f
00000330: 3241 ae61 af7b 6c40 58ff ea20 e304 1d40
00000340: 4d15 fdc6 16c8 e940 1c9d 8264 c098 9cbf
00000350: 5196 229d d7a9 cabf fc25 5a9b 1881 7540
00000360: 38dc 9cf9 183d 3240 76bb c264 26df e940
00000370: b3a6 8397 cf79 bd3f f24e a6b1 5dad 9e3f
00000380: e708 bb0f e5c9 c2bf efc2 3b6f ceac 08c0
00000390: 8e93 854f 1800 fd3f 3994 a1da 68f2 ef3f
000003a0: 7f88 3098 51fe c13f fc8a e601 4e37 b53f
000003b0: ed64 0784 147b d33f 74f7 baa3 dc7b 6c40
000003c0: 591d 7ba3 2e19 1d40 4287 ac55 17c8 e940
000003d0: ca8b 33ea a6fd a3bf 72ce f2aa 07ab ccbf
000003e0: 523d 130f 5a81 7540 ffe6 a1e5 3741 3240
000003f0: 9bd6 4b45 26df e940 21b6 28f7 abcf be3f
00000400: c597 a178 dcfa 72bf a794 5f53 9f16 c0bf
00000410: c940 7b4a f59d 08c0 9496 cefe d5f1 fc3f
00000420: 12a7 38d5 8de8 ed3f 7f88 3098 51fe c13f
00000430: fc8a e601 4e37 b53f ed64 0784 147b d33f
00000440: 2bb1 7165 f87b 6c40 7485 7f0e 1d08 1d40
00000450: 5518 0a45 17c8 e940 4136 7987 ad37 abbf
00000460: fd61 2340 68cf c9bf cba6 0655 ee80 7540
00000470: 26e3 0cec f340 3240 f5ac 2b5a 26df e940
00000480: 4c53 8a11 bdb1 bd3f bcad 71d1 ccb1 a93f
00000490: 13fb fb6e 6bab c0bf cc48 fe2f 1a6d 08c0
000004a0: aba1 6790 3cf2 fc3f 7e01 257f e4b8 ed3f
000004b0: 7f88 3098 51fe c13f fc8a e601 4e37 b53f
000004c0: ed64 0784 147b d33f 07c8 42e5 eb7b 6c40
000004d0: b354 8a6c 78fe 1c40 1100 1d3e 17c8 e940
000004e0: 9d40 7d75 8b57 abbf d708 d1ba 12e3 c9bf
000004f0: 1da7 59ca de80 7540 8283 e5aa fb3f 3240
00000500: 7a54 017a 26df e940 a00f d6c0 dbfe bd3f
00000510: c935 0628 757b a93f e47f 0028 8f10 c1bf
00000520: 2c4e f581 8643 08c0 f3f8 7c5d fff2 fc3f
00000530: 72fb 94fb 9279 ed3f 7f88 3098 51fe c13f
00000540: fc8a e601 4e37 b53f ed64 0784 147b d33f
00000550: d859 45fe f57b 6c40 af05 3896 4df9 1c40
00000560: 13f2 b438 17c8 e940 c9df 0262 f82e adbf
00000570: 4186 ba49 71cd c9bf 361e 420f e280 7540
00000580: 8b77 ccca 293f 3240 ae18 5998 26df e940
00000590: f668 3052 0fda bd3f f886 a28a 66ea aa3f
000005a0: 3651 3240 1c34 c1bf 666b 4ae0 ee23 08c0
000005b0: f43a caf1 daf3 fc3f 3eb9 4cca fd43 ed3f
000005c0: 7f88 3098 51fe c13f fc8a e601 4e37 b53f
000005d0: ed64 0784 147b d33f 4eb6 23a3 f37b 6c40
000005e0: 7f44 4925 3af7 1c40 ccb7 6135 17c8 e940
000005f0: ba97 f5a0 1dc6 acbf 274b 0fde 56fe c9bf
00000600: f49a 2f68 dc80 7540 fce4 2a77 6b3e 3240
00000610: 5d04 2cbd 26df e940 a3aa 56bb 1d3c be3f
00000620: e64c 6a7f a855 a93f 3db2 bcb0 f132 c1bf
00000630: f12b 6273 d608 08c0 de15 de49 faf4 fc3f
00000640: ff42 5359 1401 ed3f 7f88 3098 51fe c13f
00000650: fc8a e601 4e37 b53f ed64 0784 147b d33f
00000660: f18f 29ba f57b 6c40 f472 d9bf 37f4 1c40
00000670: 2040 3d33 17c8 e940 d0f2 9bc4 9356 aebf
00000680: c01b 4eff 47da c9bf 4f84 56fe d180 7540
00000690: d4e1 9926 eb3d 3240 7c35 06e3 26df e940
000006a0: 15f1 dad7 f03c be3f ac94 7f7a d58d aa3f
000006b0: ccdc 8fac 3a33 c1bf 2a17 1fb0 edea 07c0
000006c0: 1074 ef5c 32f7 fc3f 9b11 0d42 9ed5 ec3f
000006d0: 7f88 3098 51fe c13f fc8a e601 4e37 b53f
000006e0: ed64 0784 147b d33f 85b4 5479 f87b 6c40
000006f0: e7b6 9130 9df1 1c40 a627 a731 17c8 e940
00000700: 33ac 59e2 d038 aebf 3907 e5a9 f1fb c9bf
00000710: f639 143e cd80 7540 397a 2a12 293d 3240
00000720: 0370 a810 27df e940 d6fa 0d9a 176d be3f
00000730: 1193 0c78 9cf8 a93f d8ce 4de1 9d23 c1bf
00000740: 2a37 cfdb aed0 07c0 9abe d0e9 17f9 fc3f
00000750: 7842 0005 cba6 ec3f 7f88 3098 51fe c13f
00000760: fc8a e601 4e37 b53f ed64 0784 147b d33f
00000770: 8523 296a 087c 6c40 3daf fa51 eff1 1c40
00000780: c3a4 7334 17c8 e940 32b2 0623 d202 afbf
00000790: 03f7 69c9 f401 cabf 168b 47d5 d280 7540
000007a0: ffcc 9957 d13c 3240 7ac6 483a 27df e940
000007b0: d8b0 ab08 4564 be3f 65f2 b56a 3b18 aa3f
000007c0: b12e 2f65 a919 c1bf 13b1 6d88 5abb 07c0
000007d0: 35b0 4b8a 15fc fc3f c9d8 f41b 6f7a ec3f
000007e0: 7f88 3098 51fe c13f fc8a e601 4e37 b53f
000007f0: ed64 0784 147b d33f 2507 c536 047c 6c40
227.8685519618282 7.193904048157234 52799.42160118913 -0.014358725583527547 -0.21556042019889987 344.03945452341344 18.204494351725074 52985.54110300786
0.11232593868453376 0.03261609477425507 -0.1386227946959497 -2.9387029566876786 1.6549819162473616 0.9999801484590567 0.14057369166500064 0.08287513300323818
0.304387215551812 227.87257239470281 7.240180951347293 52799.56708743856 -0.01919972613805763 -0.21245561296119167 344.0767972893793 18.214423734238895
52985.1530962599 0.12250519627388186 0.030538520201829848 -0.13411239042880574 -3.003959993160863 1.6828002535777136 0.9994742475441061 0.14057369166500064
0.08287513300323818 0.304387215551812 227.87012340037097 7.274592862777807 52800.701344349225 -0.03720843263420342 -0.22460637226152344 344.0858876110481
18.254273519472644 52985.1817733041 0.12045993272668677 -0.006544915199994841 -0.12569921894856043 -3.077676926482536 1.8077879263205412 0.938527257689535
0.14057369166500064 0.08287513300323818 0.304387215551812 227.87421493562616 7.258152401503936 52800.69928493896 -0.04919397956322196 -0.20375513575258913
344.05822617377584 18.25356528508638 52985.184493762375 0.11722552529030739 0.04682274588782062 -0.1303800984545352 -3.0523909409378396 1.8079151009149732
0.932321294198181 0.14057369166500064 0.08287513300323818 0.304387215551812 227.87232141275754 7.252426968483679 52800.6987757314 -0.04277009884086834
-0.20874999621786733 344.0572076304851 18.2507362035709 52985.187479915185 0.12041692498419701 0.03627901151455227 -0.13293049503014462 -3.0375452055209307
1.8081704631801603 0.925365683448711 0.14057369166500064 0.08287513300323818 0.304387215551812 227.86964575151154 7.246114375803308 52800.69786222632
-0.043532022612777214 -0.20885652635840024 344.0536668633161 18.247924097930305 52985.19054878821 0.1211261597579229 0.037391064994241816 -0.13398397135289433
-3.023074801426749 1.8083105023153052 0.9200924459341191 0.14057369166500064 0.08287513300323818 0.304387215551812 227.86515888246646 7.254772676795106
52800.71179060135 -0.02792645085778843 -0.20830817387211423 344.0685075303479 18.238662339015917 52985.19979988683 0.11513993691519424 0.029958213775514282
-0.1467863394555657 -3.084378117572093 1.8125231844253196 0.9983410139217376 0.14057369166500064 0.08287513300323818 0.304387215551812 227.87068354145924
7.2745919746297085 52800.72920824449 -0.039044586266548345 -0.22396941992848302 344.0844870330376 18.254759170557914 52985.19595901408 0.12035631927638991
-0.004633771148382542 -0.12569037981953565 -3.0771280115951396 1.8090419724843843 0.9346379436949255 0.14057369166500064 0.08287513300323818 0.304387215551812
227.87407180982095 7.2579233422596765 52800.727177665256 -0.05315916327218107 -0.20164206630467155 344.0581865558458 18.253721955438913 52985.19850715428
0.11599332502585219 0.05018463188829567 -0.13023131293444887 -3.05327260489239 1.8091397896588244 0.9288198931972571 0.14057369166500064 0.08287513300323818
0.304387215551812 227.8725458435367 7.2485062560491995 52800.726332187776 -0.05340228852458149 -0.20224222299481795 344.05439219494457 18.249933892282122
52985.20239321231 0.11717008073725177 0.04977003205850001 -0.13331784680576597 -3.0329713967310195 1.80932556647127 0.9210905946455183 0.14057369166500064
0.08287513300323818 0.304387215551812 227.8737784723769 7.2434600326245535 52800.72567221909 -0.056998979534398204 -0.20158210849790417 344.05519033267353
18.246731448095982 52985.20609717198 0.11660857922143805 0.05256958429641928 -0.13440278181645632 -3.0175454638205563 1.8095349736137765 0.9145497275510832
0.14057369166500064 0.08287513300323818 0.304387215551812 227.8734908769133 7.241432745549104 52800.725266322115 -0.05619900312267086 -0.20307432024727598
344.0538102969724 18.243827293369563 52985.210592278025 0.11810479949660162 0.04948164515840307 -0.13436719064465477 -3.0043152822813615 1.8098090062570615
0.906381773436891 0.14057369166500064 0.08287513300323818 0.304387215551812 227.8737459956897 7.238493917128597 52800.725004792446 -0.05925428175939873
-0.20197391477651472 344.0512679462017 18.241869366234667 52985.21521292158 0.11811738271621082 0.0518633567842611 -0.1343758909785947 -2.989711166333014
1.810350764302033 0.9010764398631638 0.14057369166500064 0.08287513300323818 0.304387215551812 227.8740812925718 7.235951193708138 52800.72481115097
-0.059027221327447775 -0.2030012206615142 344.05010803128187 18.238907943125216 52985.22078344228 0.11885211478327604 0.05072487798159931 -0.13389943600815601
-2.9768960163700244 1.8108138211645497 0.8953604791332301 0.14057369166500064 0.08287513300323818 0.304387215551812 227.87602718386566 7.236264496732301
52800.725152799416 -0.0605683963543452 -0.20318469843544315 344.051472930399 18.23756930832769 52985.22586478009 0.11871749364553652 0.05096612622853484
-0.13359563294067336 -2.966481271598363 1.8115439798521156 0.8899455591224746 0.14057369166500064 0.08287513300323818 0.304387215551812 227.87551439744962
