SURF/S_params_horizontal.npy (npy, 374128 bytes, 1 tensors)

array f8 [50, 55, 17]
00000000: b6c6 3a7b 2b7c 6c40 e0eb e1bb 4911 1d40
00000010: ba43 2387 f6c7 e940 beae b415 1c28 a5bf
00000020: 7084 1b31 df0f ccbf 6c83 b4d7 ff80 7540
00000030: 5aca a61a 2935 3240 874c 25db 3bdf e940
00000040: 4562 cd5c 4e5a b93f 812b 0e05 35f5 963f
00000050: 2523 7f18 5ac9 a2bf 538f a287 309b 0ac0
00000060: f731 0256 8eed fb3f ede7 8879 bdfe ef3f
00000070: 9b48 965c b200 c23f bbfd 89fd 2ec7 b13f
00000080: 7fbe 74a7 7434 d33f c19d 7b8b dc7c 6c40
00000090: f2fa 88f4 f856 1d40 f618 11ce 17c8 e940
000000a0: 4fc8 04aa 36d2 acbf d576 4607 2423 cdbf
000000b0: 1c8d 5f6c b981 7540 f439 7596 7446 3240
000000c0: a7ce fd05 28df e940 3847 5396 855d bd3f
000000d0: bc45 c9ca f3eb 92bf d5e3 bf5b ecd7 9cbf
000000e0: 1770 44ed 4015 0cc0 070e a58c 85c1 fd3f
000000f0: 6187 577d 4db6 ed3f 9b48 965c b200 c23f
00000100: bbfd 89fd 2ec7 b13f 7fbe 74a7 7434 d33f
00000110: bf50 499f de7c 6c40 fcc8 100c f656 1d40
00000120: fd34 92f9 17c8 e940 55c5 d510 1810 adbf
00000130: 42e6 66e1 fc1f cdbf b8b7 0b7e b881 7540
00000140: 40a1 6620 8446 3240 cea0 4a2a 28df e940
00000150: ee64 82d8 705a bd3f e563 0e88 cdaa 92bf
00000160: 37c6 d8f2 75c3 9cbf ed25 1c8f 6315 0cc0
00000170: cca1 a35b 19c3 fd3f 0d2f c833 9fae ed3f
00000180: 9b48 965c b200 c23f bbfd 89fd 2ec7 b13f
00000190: 7fbe 74a7 7434 d33f a53d fecd de7c 6c40
000001a0: 9b29 1918 fe56 1d40 175a f02e 18c8 e940
000001b0: 935d 8ce6 8f36 adbf f81d dff9 201b cdbf
000001c0: 6cea d035 b781 7540 a847 5cae 8846 3240
000001d0: 286c 0e3c 28df e940 a737 56ef 755a bd3f
000001e0: 77f1 6434 c84a 92bf 9804 c4dd 8fd1 9cbf
000001f0: f29a fcc7 a415 0cc0 217b 85fd 48c4 fd3f
00000200: 6cb2 a561 30aa ed3f 9b48 965c b200 c23f
00000210: bbfd 89fd 2ec7 b13f 7fbe 74a7 7434 d33f
00000220: e316 5b8b df7c 6c40 5a31 47b6 1057 1d40
00000230: 23e2 3e48 18c8 e940 8562 4bd8 885f adbf
00000240: f88e d74d 0a17 cdbf f45b 199c b681 7540
00000250: 84c1 48ce 8d46 3240 6103 e24e 28df e940
00000260: abeb 4325 075c bd3f 0816 671f 7de1 91bf
00000270: 3d41 3e1b 23cc 9cbf 60e8 03f8 2215 0cc0
00000280: 445d 305d 6bc5 fd3f 1a3d efdc 72a4 ed3f
00000290: 9b48 965c b200 c23f bbfd 89fd 2ec7 b13f
000002a0: 7fbe 74a7 7434 d33f 7cd6 a3f6 e17c 6c40
000002b0: 9750 0a87 1a57 1d40 df42 8b98 18c8 e940
000002c0: 9a91 a512 0ca5 adbf 3586 a425 a111 cdbf
000002d0: ce2f 6d4d b581 7540 89c1 2159 9c46 3240
000002e0: ae1f 7459 28df e940 c592 1b9a 1a5e bd3f
000002f0: a060 c509 857d 91bf dcde 22a5 0ec0 9cbf
00000300: a5f2 1e92 c815 0cc0 3a97 738e 91c7 fd3f
00000310: 8da4 077b 1d9b ed3f 9b48 965c b200 c23f
00000320: bbfd 89fd 2ec7 b13f 7fbe 74a7 7434 d33f
00000330: 25ee 32b1 3f7c 6c40 3a53 ba3b 4952 1d40
00000340: 56be e850 1cc8 e940 32c3 36b8 0ce8 acbf
00000350: a2da 48c5 d8c6 ccbf 5edf 1675 b281 7540
00000360: 1b10 6f0c c143 3240 202b e0d2 2ddf e940
00000370: a915 8bed f467 bb3f 620a 0212 d37a 92bf
00000380: b4a7 040d 0e66 a2bf f45b 3b17 04e0 0bc0
00000390: 0a26 bf01 52ff fe3f 1165 1cb6 e864 ef3f
000003a0: 9b48 965c b200 c23f bbfd 89fd 2ec7 b13f
000003b0: 7fbe 74a7 7434 d33f d28b 6bab 177c 6c40
000003c0: e285 d5a3 de49 1d40 6920 7f37 1cc8 e940
000003d0: e96a e772 2ca7 abbf 534c 1ef8 f0a9 cabf
000003e0: db7b 55f2 0e81 7540 329c 68d1 a443 3240
000003f0: c474 b6e3 2ddf e940 ec9e 5d64 3c17 bc3f
00000400: 7aaf 85e6 daa5 a13f 2c8c edaa d585 a3bf
00000410: 80ab 472d bc9d 0bc0 a494 9bd9 35fe fe3f
00000420: 1450 e527 4117 ef3f 9b48 965c b200 c23f
00000430: bbfd 89fd 2ec7 b13f 7fbe 74a7 7434 d33f
00000440: 87a5 5774 e77c 6c40 4f0e e622 6957 1d40
00000450: 5ca9 e3f8 18c8 e940 8386 112d 9237 aebf
00000460: f05b ae5b ea03 cdbf 0784 c413 b381 7540
00000470: 6dbe ba15 b346 3240 62da 6fa5 28df e940
00000480: 44dc 2a68 b35b bd3f eb90 4ac1 2445 90bf
00000490: 2bf6 940e 4baf 9cbf 50df eadc e415 0cc0
000004a0: ef16 d0d4 a2c7 fd3f fcab 71ab d187 ed3f
000004b0: 9b48 965c b200 c23f bbfd 89fd 2ec7 b13f
000004c0: 7fbe 74a7 7434 d33f ee35 fb67 e77c 6c40
000004d0: c1b5 5178 5a57 1d40 75e8 f41c 19c8 e940
000004e0: c0a2 ea40 925e aebf c3ce 0716 60ff ccbf
000004f0: 8b8e 1400 b281 7540 fea6 7bdb b746 3240
00000500: 93e1 0cb2 28df e940 f90f 59da 6b5e bd3f
00000510: 4ac9 5ef7 05a9 8fbf 9555 618e ceae 9cbf
00000520: 4e82 44d4 8b15 0cc0 f281 ae57 45c9 fd3f
00000530: 1e93 11d6 8f81 ed3f 9b48 965c b200 c23f
00000540: bbfd 89fd 2ec7 b13f 7fbe 74a7 7434 d33f
00000550: ae52 55f5 a07c 6c40 c746 0a1c bc4f 1d40
00000560: cecb 2910 19c8 e940 56fd ea68 64d2 adbf
00000570: 1777 a7a5 f986 cbbf a982 9106 5281 7540
00000580: dc18 acca 6446 3240 3ace 2fd1 28df e940
00000590: 9da9 ab40 562d be3f 0cca 27b7 6354 953f
000005a0: b0f3 f071 9bec 9fbf 013e 4a71 7bcc 0bc0
000005b0: e173 d0a6 73cb fd3f 4109 8fcf e743 ed3f
000005c0: 9b48 965c b200 c23f bbfd 89fd 2ec7 b13f
000005d0: 7fbe 74a7 7434 d33f b975 ddc3 e47c 6c40
000005e0: 2eda 7d2f 5f57 1d40 820c 6464 19c8 e940
000005f0: a575 e694 3385 aebf c0fd b051 6ff4 ccbf
00000600: 0e34 585a af81 7540 e687 039f b846 3240
00000610: f4c4 ddd6 28df e940 2930 8244 045f bd3f
00000620: 43c1 b20f e09d 8dbf e5e3 433c 66de 9cbf
00000630: 9ad2 8927 8414 0cc0 57e2 fcd1 eec9 fd3f
00000640: 7ca2 2436 d37c ed3f 9b48 965c b200 c23f
00000650: bbfd 89fd 2ec7 b13f 7fbe 74a7 7434 d33f
00000660: 76eb fd8a cb7c 6c40 e0a7 2a5b a353 1d40
00000670: f23b b75b 19c8 e940 c07c 8617 b659 abbf
00000680: 7772 e7cc 6e2d cbbf 57ec 8dd0 5f81 7540
00000690: e983 741f d446 3240 6edb b6e5 28df e940
000006a0: 0b9b 390f 31ee bc3f 9ce0 5a12 c874 a03f
000006b0: 55f8 1ac6 da2c 9fbf 1839 fd96 57e7 0bc0
000006c0: 26ef 7b7e 8ecb fd3f 9417 ba69 4e47 ed3f
000006d0: 9b48 965c b200 c23f bbfd 89fd 2ec7 b13f
000006e0: 7fbe 74a7 7434 d33f 778e 8e3c ec7c 6c40
000006f0: 491c 1789 b257 1d40 37b2 4dc6 19c8 e940
00000700: 8780 4f13 9c1c afbf 73c1 58b5 b6e6 ccbf
00000710: a4c0 0ab8 ad81 7540 2bce bee6 cb46 3240
00000720: d313 2800 29df e940 2914 9e7d 2f62 bd3f
00000730: 4812 ffea f93e 8bbf e474 1077 51c2 9cbf
00000740: 0656 cf0a 3c15 0cc0 e929 f4b5 1fcb fd3f
00000750: 0c47 8f3f 8967 ed3f 9b48 965c b200 c23f
00000760: bbfd 89fd 2ec7 b13f 7fbe 74a7 7434 d33f
00000770: 999f 7157 b97c 6c40 e026 6418 6753 1d40
00000780: 07b0 27bb 19c8 e940 84b1 894f 42f4 afbf
00000790: f35d 08a9 4df0 cabf fbe6 fee0 5f81 7540
000007a0: 9d68 7dc4 e146 3240 f562 5710 29df e940
000007b0: b4dc 59b2 9994 bd3f 1c84 a77c b9ee a03f
000007c0: 1ba7 3f63 15dc 9ebf 5ba2 e69f 8be3 0bc0
000007d0: 92d2 b1bd a0cc fd3f b924 c95d 4137 ed3f
000007e0: 9b48 965c b200 c23f bbfd 89fd 2ec7 b13f
000007f0: 7fbe 74a7 7434 d33f 0e68 5fef 9e7c 6c40
227.8803077838872 7.266882835067889 52799.70399630764 -0.04132163777316354 -0.21923437021090164 344.0624615718177 18.20765844890625 52985.870501183956
0.09903421178513223 0.022419765885881574 -0.03669244336157921 -3.32577615704387 1.7454970702848394 0.9998462079740854 0.14064626236774277 0.06944554986875222
0.3000766406357584 227.90192197936815 7.3349340637785065 52800.7439046371 -0.056291301969750955 -0.22763491015660145 344.10776936840716 18.27521648752186
52985.25073137628 0.11470827980090526 -0.01847821164330353 -0.028167431926678994 -3.510377744341905 1.8597465032515872 0.9285037468036813 0.14064626236774277
0.06944554986875222 0.3000766406357584 227.90217556304376 7.334922970318299 52800.749215224736 -0.05676341252809417 -0.22753869062380444 344.1075420816155
18.275453591400264 52985.2551625386 0.11466126714585176 -0.01822968619271483 -0.02808937353819926 -3.5104438000168927 1.8601316051154866 0.9275661479345857
0.14064626236774277 0.06944554986875222 0.3000766406357584 227.90219783455282 7.334953667197989 52800.7557298431 -0.05705690087614381 -0.22739040566214874
344.10722905738544 18.27552308800628 52985.25733109593 0.11466157048400182 -0.01786339587964522 -0.028143165503028728 -3.5105682014431006 1.8604211714916306
0.9270250231907773 0.14064626236774277 0.06944554986875222 0.3000766406357584 227.90228812971972 7.3350246888115525 52800.758819047616 -0.05736949577630405
-0.2272656326377882 344.1070824614137 18.275601284754444 52985.25962925587 0.11468548450277065 -0.0174617338577914 -0.02812247136859124 -3.510320603961233
1.8606980934326467 0.9263243022086585 0.14064626236774277 0.06944554986875222 0.3000766406357584 227.90258342742516 7.335062131886068 52800.76862109242
-0.05789983489629265 -0.22710050905247817 344.10676329279966 18.275823183766565 52985.26091962993 0.11471716177363607 -0.01708038208138929 -0.02807639010344941
-3.51063646466203 1.8612227978241678 0.9251849558760498 0.14064626236774277 0.06944554986875222 0.3000766406357584 227.8827749247295 7.3303574879144495
52800.88487660575 -0.05645789860444096 -0.22481832154308728 344.1060686963518 18.26466443740365 52985.431991657475 0.10705500411412196 -0.018046663259620017
-0.035934866990217 -3.484382802485465 1.9373340671758137 0.9810679966787196 0.14064626236774277 0.06944554986875222 0.3000766406357584 227.8778893566619
7.3221383666109165 52800.881774485875 -0.054009808565487046 -0.20831119647172844 344.0661490763866 18.264233673133454 52985.43404696279 0.109729551795336
0.034468498840253894 -0.03813045226595366 -3.452019075154965 1.9370630741407604 0.9715886859144143 0.14064626236774277 0.06944554986875222 0.3000766406357584
227.90325371855235 7.335362000743387 52800.78038199499 -0.05901772308494648 -0.22668199040046444 344.10622002376516 18.27617011841942 52985.27019493726
0.11468049328947055 -0.015888761804164025 -0.02801244045735111 -3.5106904277016966 1.861239272403903 0.9228294704929563 0.14064626236774277 0.06944554986875222
0.3000766406357584 227.90324782433112 7.335306053149396 52800.78478475 -0.05931527178228668 -0.22654343677242225 344.1059571078301 18.27624294060569
52985.271734657836 0.11472200470694806 -0.015459105121270373 -0.02801058525104379 -3.510520609226922 1.8616383957925078 0.9220656567600576 0.14064626236774277
0.06944554986875222 0.3000766406357584 227.89464823403017 7.32786601841662 52800.78322305494 -0.058245790297855635 -0.21505661572057796 344.08252579536435
18.274975459113975 52985.275535490786 0.11787928656455056 0.020829732946319665 -0.03117602236692435 -3.474844822958176 1.8621708408529616 0.9145392469293158
0.14064626236774277 0.06944554986875222 0.3000766406357584 227.90292542699697 7.335324041420376 52800.79350473826 -0.05960999672536652 -0.22620955933414955
344.1053107686465 18.27625459514811 52985.27622879474 0.11473108933040578 -0.014461279372284813 -0.028192136219306625 -3.510017689603342 1.8618000223779256
0.9214874322397715 0.14064626236774277 0.06944554986875222 0.3000766406357584 227.89984654992776 7.331677841642858 52800.792445771294 -0.05341881787466596
-0.21232399945337807 344.08589225233794 18.276674238153564 52985.278041294645 0.11300951596932067 0.03214097236690458 -0.0304445441640769 -3.487960033037904
1.8621964398179869 0.9149543824175788 0.14064626236774277 0.06944554986875222 0.3000766406357584 227.90383746951167 7.335641996417572 52800.80545697029
-0.060765149457211946 -0.22579082350558685 344.1049118442554 18.276548787673317 52985.28126911041 0.11477944199403169 -0.013303711399097598 -0.0280850151940414
-3.5103684277080474 1.8620907886094022 0.9188886872672994 0.14064626236774277 0.06944554986875222 0.3000766406357584 227.8976247042854 7.331447964775833
52800.80409607296 -0.06241042347832873 -0.21045847657727243 344.0859079320068 18.276882439248414 52985.283244794155 0.11554871181748433 0.03307132383975661
-0.030136427099853962 -3.4861061565646145 1.86245798205815 0.9129950362922933 0.14064626236774277 0.06944554986875222 0.3000766406357584 227.8944012511642
