SURF/S_params.npy (npy, 340128 bytes, 1 tensors)

array f8 [50, 50, 17]
0	0x406c7bab61eb5265	227.86467071496295
1	0x401cc7293f4c2ced	7.194493283295043
2	0x40e9c7eb9b5d94ea	52799.36271552167
3	0xbf7c32a7d98dcf49	-0.006884246505126709
4	0xbfcb70f6132d7866	-0.21438480316550396
5	0x407580a5a20ff0a3	344.04043775774534
6	0x40323346d79a669f	18.200299716182254
7	0x40e9df314641a2bc	52985.53982621941
8	0x3fbc962b319562f3	0.11166639290366813
9	0x3f9f5e0e37046538	0.03063223086164621
10	0xbfc20d068206c8d2	-0.1410225043196705
11	0xc0077c63af1cb8e8	-2.9357370072021816
12	0x3ffa879c5614f1f3	1.6581080782481166
13	0x3fefff3f2c42cb6a	0.9999080528708479
14	0x3fc2003905c6091f	0.14063179761803554
15	0x3fb52ae0aec22527	0.08268551127016065
16	0x3fd37230ea30d345	0.30384467001140464
17	0x406c7bb8206c2798	227.86622639774282
18	0x401cc7c8b66096c6	7.19510159458668
19	0x40e9c7eb9d2d3ba8	52799.36293660785
20	0xbf694b3fce33b896	-0.003087639446326905
21	0xbfcb7e6401a7c928	-0.2147946365435669
22	0x407580ad652314cf	344.0423327799189
23	0x403233521b1ff0d8	18.20047158746533
24	0x40e9df3147cdeed2	52985.54001518864
25	0x3fbd5a2af09ea45a	0.1146571004343441
26	0x3f9e3546a7059c29	0.029500106758316633
27	0xbfc20c0ba5723489	-0.14099259928153554
28	0xc0077cb36e11faed	-2.935889110492431
29	0x3ffa87e8ba93a4b1	1.658180931868895
30	0x3feffcf7da655ac2	0.9996299043221699
31	0x3fd029fef582ceb8	0.2525632283752475
32	0x3fc301ee53c874f3	0.1484964284035538
33	0x3fe176365f5add0e	0.5456802236939511
34	0x406c7bb8a047e4b3	227.86628736535712
35	0x401cc7d57a9e1238	7.195150295160197
36	0x40e9c7eb9d4635fd	52799.362948518225
37	0xbf67898e04fe559a	-0.0028732084101174673
38	0xbfcb79428be54603	-0.21463805991020032
39	0x407580adca5038e7	344.0424292691882
40	0x403233528282cea1	18.200477749762857
41	0x40e9df3147db8c0f	52985.540021680405
42	0x3fbd55c0f33a9777	0.11458974779324459
43	0x3f9e07b113c9693e	0.029326216538131826
44	0xbfc20c0edd1c37e8	-0.14099298283002715
45	0xc0077cbb55ec5d4c	-2.9359041893727973
46	0x3ffa87ed1710b97f	1.65818509111304
47	0x3feffc94b9dd77f5	0.9995826368501627
48	0x3fd753e1682298e1	0.36449465913245943
49	0x3fcb6e6c502fd754	0.21430734553694697
50	0x3fe93354499d507b	0.7875157773764977
51	0x406c7bb8fa169dd5	227.86633018891612
52	0x401cc7dcaeccb1e5	7.195177775615297
53	0x40e9c7eb9d5786e9	52799.362956775185
54	0xbf66a87c6e00bbf4	-0.002765887285952834
55	0xbfcb8039dccb7b1b	-0.21485064774511717
56	0x407580adf9aaf22c	344.0424744298532
57	0x403233527137a7aa	18.20047671898616
58	0x40e9df3147de5610	52985.54002301034
59	0x3fbd52284bd74fdf	0.11453487254703941
60	0x3f9e0cb214008278	0.029345304938149103
61	0xbfc20c22753f010b	-0.14099531865031908
62	0xc0077cc21e65b568	-2.935917127112294
63	0x3ffa87eea510cd9b	1.658186573779722
64	0x3feffc779b958646	0.9995687521697583
65	0x3fde7dc3dac26309	0.47642608988967133
66	0x3fd1ed75264b9cd9	0.28011826267034007
67	0x3ff0783919efe1f3	1.029351331059044
68	0x406c7bbe9acde0e1	227.86701717577583
69	0x401cc8536eccf185	7.195630770930056
70	0x40e9c7eb9e5ee612	52799.36308236061
71	0xbf4ea08d34592b8b	-0.000934666583540676
72	0xbfcb9200f514f735	-0.2153931805314017
73	0x407580b0d1d10f0b	344.0431688467367
74	0x4032334f08e8a3e8	18.200424725338877
75	0x40e9df3147ef8885	52985.540031210556
76	0x3fbcbb94fa04e790	0.11223727325423583
77	0x3f9d7b6fc6de466a	0.02879118586822075
78	0xbfc20dc16bf1b1fb	-0.14104478617390712
79	0xc0077d4237b6385d	-2.9361614563450034
80	0x3ffa88005bb992c0	1.6582034667018632
81	0x3feff7b59af343de	0.9989879633304743
82	0x3fe2d3d326b1169a	0.5883575206468834
83	0x3fd623b4247f4e0a	0.3459291798037333
84	0x3ff456c80f111baa	1.2711868847415908
85	0x406c7bbe8b5c8c91	227.8670098121261
86	0x401cc8550611c556	7.1956368397089445
87	0x40e9c7eb9e63bb92	52799.36308466563
88	0xbf4e7238a2b070f9	-0.0009291435757208525
89	0xbfcb94b767b7e5ba	-0.21547596516010775
90	0x407580b0ed7e1fbb	344.0431952406613
91	0x4032334ef6c59ec7	18.200423644301534
92	0x40e9df3147f08a94	52985.54003169123
93	0x3fbcbbd724ee0069	0.11224121715167858
94	0x3f9d83d893a5cc37	0.028823265086838936
95	0xbfc20dc363908806	-0.14104502069045582
96	0xc0077d44b1f86c1e	-2.9361661819398384
97	0x3ffa880042a01a2d	1.658203373198954
98	0x3feff7b59b89b67d	0.9989879644251257
99	0x3fe668c46000fbad	0.7002889514040952
100	0x3fda59f322b2ff3a	0.41174009693712643
101	0x3ff8355704325560	1.5130224384241373
102	0x406c7bbe92dd8b29	227.8670133902572
103	0x401cc85bf0431f9a	7.195663217636957
104	0x40e9c7eb9e76998f	52799.363093662185
105	0xbf4d73e133ee94c2	-0.0008988237021766642
106	0xbfcb9742e3ea0f81	-0.21555362824085125
107	0x407580b13a540b18	344.0432685168212
108	0x4032334e9e614c55	18.200418375734746
109	0x40e9df3147eec8eb	52985.54003085367
110	0x3fbcb2c030d7e4af	0.11210251991714658
111	0x3f9d9fdc3aefa93d	0.028930131051233977
112	0xbfc20dd5e0549f71	-0.14104722455635568
113	0xc0077d50efc162e7	-2.936189530457671
114	0x3ffa87ff368cb9b2	1.6582023745391834
115	0x3feff758be7f4aac	0.9989436836861691
116	0x3fe9fdb59950e0c1	0.8122203821613071
117	0x3fde903220e6b069	0.47755101407051953
118	0x3ffc13e5f9538f15	1.7548579921066836
119	0x406c7bbeb2fc9b3d	227.86702870690524
120	0x401cc85c7b678ded	7.195665291018924
121	0x40e9c7eb9e778e94	52799.36309411857
122	0xbf4d1db3e364218f	-0.0008885506020144695
123	0xbfcb94fc5094ef56	-0.2154841798272808
124	0x407580b135505d92	344.0432637347486
125	0x4032334e9e5de4cb	18.200418374942085
126	0x40e9df3147ee5171	52985.54003063113
127	0x3fbcb0b718502b0c	0.11207146018584185
128	0x3f9d9d0f24bc5333	0.028919445626416972
129	0xbfc20dd78a396e0d	-0.14104742287860042
130	0xc0077d51d2baab30	-2.9361912215439574
131	0x3ffa87ff1b13865b	1.6582022721926453
132	0x3feff73bb12d9e91	0.9989298305999502
133	0x3fed92a6d2a0c5d6	0.9241518129185191
134	0x3fe163388f8d30cd	0.5433619312039127
135	0x3ffff274ee74c8cc	1.9966935457892303
136	0x406c7bbeb2fc9b3d	227.86702870690524
137	0x401cc85c7b678ded	7.195665291018924
138	0x40e9c7eb9e778e94	52799.36309411857
139	0xbf4d1db3e364218f	-0.0008885506020144695
140	0xbfcb94fc5094ef56	-0.2154841798272808
141	0x407580b135505d92	344.0432637347486
142	0x4032334e9e5de4cb	18.200418374942085
143	0x40e9df3147ee5171	52985.54003063113
144	0x3fbcb0b718502b0c	0.11207146018584185
145	0x3f9d9d0f24bc5333	0.028919445626416972
146	0xbfc20dd78a396e0d	-0.14104742287860042
147	0xc0077d51d2baab30	-2.9361912215439574
148	0x3ffa87ff1b13865b	1.6582022721926453
149	0x3feff73bb12d9e91	0.9989298305999502
150	0x3ff093cc05f85575	1.036083243675731
151	0x3fe37e580ea70965	0.6091728483373059
152	0x4001e881f1cb0141	2.238529099471777
153	0x406c7bbea7737ac5	227.86702320627788
154	0x401cc85d128b5714	7.195667543177269
155	0x40e9c7eb9e79bcdb	52799.36309515844
156	0xbf4dc5cdb02bd6d9	-0.0009085897766840336
157	0xbfcb9974d0351769	-0.21562061468483343
158	0x407580b137c41528	344.04326607317716
159	0x4032334e8c8b5529	18.200417312638056
160	0x40e9df3147ea837b	52985.540028816984
161	0x3fbcaeab1e089d50	0.11204022868388575
162	0x3f9db1c00779cea2	0.02899837537411421
163	0xbfc20ddda3ac862a	-0.14104814998522502
164	0xc0077d539d4e0d87	-2.936194638199314
165	0x3ffa87fed370dcbc	1.658202005329982
166	0x3feff73bb2fa9b6f	0.9989298339540776
167	0x3ff25e44a2a047ff	1.148014674432943
168	0x3fe599778dc0e1fd	0.674983765470699
169	0x4003d7c96c5b9e1c	2.4803646531543233
170	0x406c7bbe6a6ef9f8	227.8669941108235
171	0x401cc85d19d605b9	7.195667651832474
172	0x40e9c7eb9e7a7678	52799.36309550417
173	0xbf4ea33227dd746e	-0.0009349818135252605
174	0xbfcb9db69bb53c61	-0.21575052836348887
175	0x407580b147709cf9	344.04328102101823
176	0x4032334e8061bf79	18.200416587700122
177	0x40e9df3147e90c95	52985.54002811868
178	0x3fbcaf0b6189746f	0.1120459664466169
179	0x3f9dc0481e5cde0b	0.029053809025951376
180	0xbfc20ddf2cd878af	-0.14104833307005069
181	0xc0077d54121ad1ef	-2.9361955084261733
182	0x3ffa87febf4a985f	1.6582019302673172
183	0x3feff73bbac7da91	0.9989298484859593
184	0x3ff428bd3f483a8a	1.259946105190155
185	0x3fe7b4970cdaba95	0.7407946826040922
186	0x4005c710e6ec3af7	2.72220020683687
187	0x406c7bbe24379838	227.86696062906572
188	0x401cc85d99832e50	7.1956695543591
189	0x40e9c7eb9e7be302	52799.36309618318
190	0xbf501378165f1ee9	-0.0009812042930991644
191	0xbfcba32979a0c830	-0.21591680945272307
192	0x407580b151cdbbc9	344.0432909046618
193	0x4032334e7258a413	18.2004157511147
194	0x40e9df3147e38df9	52985.54002549867
195	0x3fbcac290c524874	0.11200195837798949
196	0x3f9ddc694fd75ef7	0.029161115167737752
197	0xbfc20de44f6fc5fb	-0.14104894522419884
198	0xc0077d559bca42e9	-2.936198441610362
199	0x3ffa87fe742cfd27	1.6582016504397161
200	0x3feff73bc1b20588	0.9989298613656254
201	0x3ff5f335dbf02d14	1.371877535947367
202	0x3fe9cfb68bf4932d	0.8066055997374854
203	0x4007b658617cd7d2	2.9640357605194163
204	0x406c7bbda5e46e60	227.86690039267978
205	0x401cc85ed9794efe	7.1956743221560355
206	0x40e9c7eb9e7d4505	52799.36309684258
207	0xbf51a221bcb338d1	-0.001076252886196328
208	0xbfcba9038dae6af6	-0.21609539430649932
209	0x407580b159d8de85	344.04329857553995
210	0x4032334e6f4a1d5f	18.200415568918626
211	0x40e9df3147d6dba4	52985.54001944445
212	0x3fbca304fb4485a0	0.11186247953857853
213	0x3f9e0d6ad2d77a3c	0.02934805786014237
214	0xbfc20dec85bb39d6	-0.14104992418147216
215	0xc0077d585c2a0928	-2.9362036896065042
216	0x3ffa87fdd64fed6d	1.658201062352272
217	0x3feff73bc6e5397a	0.9989298710514014
218	0x3ff7bdae78981f9e	1.4838089667045788
219	0x3febead60b0e6bc6	0.8724165168708786
220	0x4009a59fdc0d74ae	3.2058713142019633
221	0x406c7bbc58499e74	227.86674131754592
222	0x401cc8612f3fecd0	7.195683229710269
223	0x40e9c7eb9e7cdcb2	52799.36309664826
224	0xbf555d0ebcf33210	-0.0013039249350185224
225	0xbfcbaf00863e7b8e	-0.21627813868414275
226	0x407580b17e81235a	344.04333353466575
227	0x4032334e8f06e457	18.200417460615736
228	0x40e9df3147bd929f	52985.54000738751
229	0x3fbc8f2d1b6aa4ea	0.1115596954283721
230	0x3f9e65d6e22c3a17	0.02968536143731101
231	0xbfc20df3e4527775	-0.14105080269376527
232	0xc0077d5c1aca5805	-2.9362108319282947
233	0x3ffa87fcb7562c05	1.658199993284826
234	0x3feff73bd15bfbd8	0.9989298905419401
235	0x3ff9882715401229	1.595740397461791
236	0x3fee05f58a28445e	0.9382274340042718
237	0x400b94e7569e1189	3.4477068678845098
238	0x406c7bba0487abe0	227.86645723818128
239	0x401cc862a115861c	7.195688740671837
240	0x40e9c7eb9e7a3132	52799.36309537514
241	0xbf5a3790bac84c92	-0.0016001618743118101
242	0xbfcbb66c7e3b18cf	-0.21650463260284034
243	0x407580b1e5060424	344.04343130445545
244	0x4032334eb7279972	18.20041985241682
245	0x40e9df3147a7d091	52985.53999701248
246	0x3fbc80284ce5bbac	0.11133052708986096
247	0x3f9ec30c79769cf2	0.03004092685082766
248	0xbfc20df00880a521	-0.14105034270441144
249	0xc0077d5d8cb760c1	-2.9362135880911358
250	0x3ffa87fbd35247d0	1.65819914386201
251	0x3feff73bf21ca793	0.9989299515484497
252	0x3ffb529fb1e804b4	1.707671828219003
253	0x3ff0108a84a10e7b	1.004038351137665
254	0x400d842ed12eae65	3.6895424215670567
255	0x406c7bae8296bdb9	227.86505250398275
