SURF/S_params_vertical.npy (npy, 374128 bytes, 1 tensors)

array f8 [50, 55, 17]
00000000: b6c6 3a7b 2b7c 6c40 e0eb e1bb 4911 1d40
00000010: ba43 2387 f6c7 e940 beae b415 1c28 a5bf
00000020: 7084 1b31 df0f ccbf 6c83 b4d7 ff80 7540
00000030: 5aca a61a 2935 3240 874c 25db 3bdf e940
00000040: 4562 cd5c 4e5a b93f 812b 0e05 35f5 963f
00000050: 2523 7f18 5ac9 a2bf 538f a287 309b 0ac0
00000060: f731 0256 8eed fb3f ede7 8879 bdfe ef3f
00000070: 9b48 965c b200 c23f bbfd 89fd 2ec7 b13f
00000080: 7fbe 74a7 7434 d33f 1789 c5ed 3d7c 6c40
00000090: 4fa3 54d1 0c12 1d40 be11 fa89 f6c7 e940
000000a0: 8730 5c47 d0d9 a1bf 2324 5bb7 dc13 ccbf
000000b0: 843c 83ee 0d81 7540 879c 3f3b 5535 3240
000000c0: 062a 79dd 3bdf e940 ddc0 8dd5 3a08 bb3f
000000d0: bfc3 3232 84c3 953f 8d04 789f dcd0 a2bf
000000e0: 687b 8c8b dd9b 0ac0 2888 f9ca 26ee fb3f
000000f0: 6c9a 2270 bcfc ef3f 9b48 965c b200 c23f
00000100: bbfd 89fd 2ec7 b13f 7fbe 74a7 7434 d33f
00000110: 4ece c260 3e7c 6c40 62b9 0474 1712 1d40
00000120: 1c5f 0f8a f6c7 e940 b2a4 1277 3ac7 a1bf
00000130: 8f34 8f12 e51e ccbf 5320 901f 0e81 7540
00000140: a5f8 6991 5635 3240 fd78 75dd 3bdf e940
00000150: e281 a7f3 9705 bb3f deb6 634e 63c6 953f
00000160: 5a57 6244 e0d1 a2bf a7bb 69cd e79b 0ac0
00000170: c714 6b98 2cee fb3f 8f4e e2f3 b5fc ef3f
00000180: 9b48 965c b200 c23f bbfd 89fd 2ec7 b13f
00000190: 7fbe 74a7 7434 d33f 392a 4356 437c 6c40
000001a0: a9a6 eb25 e612 1d40 0700 7b8b f6c7 e940
000001b0: 484b c1f5 f348 a0bf 8067 1601 d54e ccbf
000001c0: 5e95 6bdb 1381 7540 068d fcf2 7235 3240
000001d0: 4b14 66dd 3bdf e940 d58a b8d4 3fc6 ba3f
000001e0: 8f4b 9681 996a 943f d2a1 4074 a0e1 a2bf
000001f0: 095b f8f0 989c 0ac0 2ab6 14d5 a5ee fb3f
00000200: 69e5 377b 99fa ef3f 9b48 965c b200 c23f
00000210: bbfd 89fd 2ec7 b13f 7fbe 74a7 7434 d33f
00000220: a2b1 4046 437c 6c40 bc61 24c8 eb12 1d40
00000230: 7326 818b f6c7 e940 a8c8 c983 c13c a0bf
00000240: cfa6 9f66 b543 ccbf 5bf4 5316 1481 7540
00000250: 8787 11ea 7335 3240 ce33 69dd 3bdf e940
00000260: 35f5 ef0a ffc3 ba3f a009 a730 1e45 943f
00000270: 9596 5d36 b7e1 a2bf 4777 c594 9c9c 0ac0
00000280: d0fc da28 a9ee fb3f 4c6c 1174 63fa ef3f
00000290: 9b48 965c b200 c23f bbfd 89fd 2ec7 b13f
000002a0: 7fbe 74a7 7434 d33f bb6b d36e 437c 6c40
000002b0: 2ee3 a9b8 ef12 1d40 da6a 868b f6c7 e940
000002c0: 8c4e dc4f 2033 a0bf e2f6 db8d 6d3e ccbf
000002d0: 4bd1 172e 1481 7540 36d2 748a 7435 3240
000002e0: 8218 6add 3bdf e940 2fcc 65cd 06c2 ba3f
000002f0: b7c0 1092 5f31 943f 286e 165a dce1 a2bf
00000300: 6177 8099 9f9c 0ac0 0bc6 8f35 abee fb3f
00000310: 8b21 5cc5 38fa ef3f 9b48 965c b200 c23f
00000320: bbfd 89fd 2ec7 b13f 7fbe 74a7 7434 d33f
00000330: f2f2 ee0e 437c 6c40 63fa b621 7b13 1d40
00000340: 0dbf 698c f6c7 e940 2479 99b6 6116 9fbf
00000350: 9000 4f40 b251 ccbf f59b e52d 1981 7540
00000360: 3de3 ff39 8935 3240 b161 6bdd 3bdf e940
00000370: 4fff 61de 2cc3 ba3f c10e 0317 6278 933f
00000380: f7c1 dd9a b4e8 a2bf 3864 d2ba 199d 0ac0
00000390: 6cbc 07b2 f3ee fb3f 4b4f ced0 1dfa ef3f
000003a0: 9b48 965c b200 c23f bbfd 89fd 2ec7 b13f
000003b0: 7fbe 74a7 7434 d33f de27 140b 437c 6c40
000003c0: c076 af49 8013 1d40 0a73 708c f6c7 e940
000003d0: add4 d18a 4c07 9fbf 6f11 0792 b54d ccbf
000003e0: 9ef3 6d5a 1981 7540 e42a 6908 8a35 3240
000003f0: 34d3 6bdd 3bdf e940 407e 7f06 f8c1 ba3f
00000400: 966d e0d1 6466 933f e8cc 8eeb dce8 a2bf
00000410: 52cf 94d7 1d9d 0ac0 b885 7351 f6ee fb3f
00000420: 5d9b 44d0 08fa ef3f 9b48 965c b200 c23f
00000430: bbfd 89fd 2ec7 b13f 7fbe 74a7 7434 d33f
00000440: 30b0 8285 3e7c 6c40 a319 f3e6 6114 1d40
00000450: 4b57 be8d f6c7 e940 92ef bea0 778e 9dbf
00000460: 732c 34a4 e763 ccbf 4c38 96f5 2181 7540
00000470: 9189 47af ab35 3240 b8af 5add 3bdf e940
00000480: 6208 2c3a 08c6 ba3f 02d2 4066 f636 923f
00000490: ce13 ad7a b2f1 a2bf f421 454e e29d 0ac0
000004a0: 1e32 ebf7 66ef fb3f 62ae d0b3 05fa ef3f
000004b0: 9b48 965c b200 c23f bbfd 89fd 2ec7 b13f
000004c0: 7fbe 74a7 7434 d33f d809 544b 3e7c 6c40
000004d0: 9149 b19e 6a14 1d40 cc50 c98d f6c7 e940
000004e0: addc e8ff c881 9dbf 777c 7bf5 8561 ccbf
000004f0: fc82 5347 2281 7540 2f2c 1d01 ad35 3240
00000500: 7054 59dd 3bdf e940 a344 6346 f7c4 ba3f
00000510: 7c92 38c7 e124 923f 1ba4 bbe1 edf1 a2bf
00000520: 651f e4ab e99d 0ac0 aba4 eb20 6bef fb3f
00000530: fd83 63b4 05fa ef3f 9b48 965c b200 c23f
00000540: bbfd 89fd 2ec7 b13f 7fbe 74a7 7434 d33f
00000550: ce55 794a 3e7c 6c40 b07a 1f38 7114 1d40
00000560: e1e1 d18d f6c7 e940 0198 b419 c073 9dbf
00000570: 65e5 1392 315f ccbf 953e db77 2281 7540
00000580: eac8 60fd ad35 3240 09d3 57dd 3bdf e940
00000590: e8c2 0649 4cc3 ba3f 447d 8006 4616 923f
000005a0: df69 6577 23f2 a2bf cea4 6965 ef9d 0ac0
000005b0: 168d dd1f 6eef fb3f f120 87f8 f6f9 ef3f
000005c0: 9b48 965c b200 c23f bbfd 89fd 2ec7 b13f
000005d0: 7fbe 74a7 7434 d33f e440 9365 3e7c 6c40
000005e0: 5d26 264f 7814 1d40 ed77 db8d f6c7 e940
000005f0: 3a7f 8d05 7062 9dbf 6ca9 0185 065d ccbf
00000600: dba6 4fa3 2281 7540 495a dc07 af35 3240
00000610: 98b0 55dd 3bdf e940 98d2 a6dc 0ac1 ba3f
00000620: eee6 dcf7 1008 923f 58ff a693 65f2 a2bf
00000630: f673 3fbb f59d 0ac0 d76f 1e36 71ef fb3f
00000640: 718a 2af5 dff9 ef3f 9b48 965c b200 c23f
00000650: bbfd 89fd 2ec7 b13f 7fbe 74a7 7434 d33f
00000660: 3c28 d197 3e7c 6c40 6c19 cc43 7c14 1d40
00000670: 3fa4 e08d f6c7 e940 9442 e739 ec51 9dbf
00000680: add3 63cd 3759 ccbf 409f 1aad 2281 7540
00000690: 013d 1c9d af35 3240 de6d 54dd 3bdf e940
000006a0: da07 b315 64be ba3f 5602 b1ae 82fa 913f
000006b0: 6b91 2441 8df2 a2bf 8de8 fa3a f99d 0ac0
000006c0: 8ea0 73cd 72ef fb3f 94f7 7a95 b5f9 ef3f
000006d0: 9b48 965c b200 c23f bbfd 89fd 2ec7 b13f
000006e0: 7fbe 74a7 7434 d33f b0f5 e1db 3e7c 6c40
000006f0: fa4c 76dc 8a14 1d40 8485 f78d f6c7 e940
00000700: a8b8 5af0 6637 9dbf 84f5 b183 175f ccbf
00000710: f83e 1b02 2381 7540 4577 6ea0 b135 3240
00000720: 98e4 4cdd 3bdf e940 dbdf 227f 1fbb ba3f
00000730: e1de b3a2 ccfa 913f 6d07 003e 43f3 a2bf
00000740: 9746 9893 079e 0ac0 545c d2b1 78ef fb3f
00000750: 2bb1 0f97 b5f9 ef3f 9b48 965c b200 c23f
00000760: bbfd 89fd 2ec7 b13f 7fbe 74a7 7434 d33f
00000770: 14e6 abfe 3e7c 6c40 b694 a70b 8f14 1d40
00000780: f0ff fc8d f6c7 e940 b1aa 9999 dd27 9dbf
00000790: 35e7 430e 415b ccbf 1326 1f12 2381 7540
000007a0: 2b41 1a3f b235 3240 b89d 4bdd 3bdf e940
000007b0: 29ee 937c 93b8 ba3f 7f35 aa51 eaed 913f
000007c0: 23f5 9b51 6af3 a2bf e9cf f245 0b9e 0ac0
000007d0: b372 fe61 7aef fb3f a6d3 297a 8ef9 ef3f
000007e0: 9b48 965c b200 c23f bbfd 89fd 2ec7 b13f
000007f0: 7fbe 74a7 7434 d33f e638 e598 3f7c 6c40
227.8803077838872 7.266882835067889 52799.70399630764 -0.04132163777316354 -0.21923437021090164 344.0624615718177 18.20765844890625 52985.870501183956
0.09903421178513223 0.022419765885881574 -0.03669244336157921 -3.32577615704387 1.7454970702848394 0.9998462079740854 0.14064626236774277 0.06944554986875222
0.3000766406357584 227.88255966740755 7.267627020636453 52799.70434287515 -0.0348649108037487 -0.21935614540987655 344.06590129150595 18.208331778555046
52985.87078531463 0.10559432710374801 0.02125364834200005 -0.03674973913803923 -3.3261061575171205 1.7456424645138302 0.9996015730037704 0.14064626236774277
0.06944554986875222 0.3000766406357584 227.8826144985964 7.26766759184679 52799.70435303284 -0.034723116908318544 -0.21969283491344924 344.065948069566
18.208352173206226 52985.87078355437 0.10555410097686704 0.021264602336421905 -0.036757477138208386 -3.326125721730438 1.7456479982222832 0.9995984805450052
0.14064626236774277 0.06944554986875222 0.3000766406357584 227.88321984403754 7.268456070430752 52799.70452642446 -0.03180658698024402 -0.22115576317883878
344.06734792732993 18.208785235078743 52985.87077621425 0.10458754485493256 0.019937895330780327 -0.036877645674681894 -3.32646358735963 1.7457636188004337
0.9993407637222563 0.14064626236774277 0.06944554986875222 0.3000766406357584 227.8832122100403 7.268477561207359 52799.70452935705 -0.03171353086226364
-0.22081630240363956 344.0674041060899 18.208799962310447 52985.87077770346 0.10455316559815205 0.019794913978111617 -0.03687832392351457 -3.326470529819662
1.7457667919077728 0.9993150011972687 0.14064626236774277 0.06944554986875222 0.3000766406357584 227.88323155682687 7.268492589348893 52799.70453186864
-0.031640062092404525 -0.22065514971466543 344.06742677024585 18.20880952217177 52985.87077812945 0.10452311052885997 0.019719594278456678 -0.036879430768035626
-3.3264762871103106 1.7457687465906726 0.9992946486172952 0.14064626236774277 0.06944554986875222 0.3000766406357584 227.88318583173492 7.269024397652717
52799.70464026751 -0.030358816881169606 -0.2212431730276916 344.0686472863302 18.2091251611448 52985.8707787426 0.10454063824908853 0.019013912825143423
-0.03693165197808306 -3.3267092318970093 1.7458378748231338 0.9992817953338798 0.14064626236774277 0.06944554986875222 0.3000766406357584 227.88318399368922
7.269044066748108 52799.70464346379 -0.030301280949477306 -0.22112149839643844 344.0686897559152 18.20913746421401 52985.870778954035 0.10452222975390502
0.0189452889536433 -0.03693285346471403 -3.3267170755661164 1.7458403760614214 0.9992717807516375 0.14064626236774277 0.06944554986875222 0.3000766406357584
227.88263202214284 7.269904717052131 52799.70480267572 -0.028863782106540344 -0.22179885404361563 344.0707908504453 18.209650950398615 52985.87077078171
0.10458423061575808 0.01778779028991729 -0.037000253176791995 -3.3270918001983265 1.745947807724526 0.9992702972426282 0.14064626236774277 0.06944554986875222
0.3000766406357584 227.88260427869568 7.269937972613108 52799.70480790883 -0.02881540357540462 -0.22172617422527072 344.07086880323163 18.20967108690473
52985.87077013485 0.1045679613919384 0.017718818459018668 -0.03700202351121381 -3.32710584916997 1.7459517751652054 0.999270298310989 0.14064626236774277
0.06944554986875222 0.3000766406357584 227.88260387132908 7.269963147088376 52799.70481199376 -0.028761865204749885 -0.22165507919980168 344.0709150852429
18.209686123017413 52985.87076941698 0.10454251082297683 0.017663091799588373 -0.037003620457386914 -3.327116768156521 1.745954632257797 0.9992632726726055
0.14064626236774277 0.06944554986875222 0.3000766406357584 227.88261679420896 7.269990193084223 52799.70481656478 -0.028695822085295954 -0.22158891195733632
344.0709565268896 18.209702006623306 52985.87076839915 0.10450809370997616 0.017608895424223663 -0.03700559070011761 -3.3271288517703352 1.7459575761813448
0.9992522991563658 0.14064626236774277 0.06944554986875222 0.3000766406357584 227.88264075137147 7.270005282718881 52799.70481903152 -0.028632823022976497
-0.2214727166061982 344.0709658660817 18.209710902589908 52985.87076779803 0.1044676354386235 0.017557184135741664 -0.0370067731876443 -3.3271355254956405
1.7459590936141782 0.9992320937669654 0.14064626236774277 0.06944554986875222 0.3000766406357584 227.88267320759542 7.270060963364125 52799.70482994153
-0.028531654758517405 -0.22165197306086892 344.0710469307228 18.209741618127072 52985.870764204476 0.1044177708998854 0.017558286123828707 -0.03701219684445687
-3.327162888607585 1.745964712730502 0.9992320967117271 0.14064626236774277 0.06944554986875222 0.3000766406357584 227.88268979619954 7.27007692537625
52799.70483255375 -0.028472387790695112 -0.22153485485596894 344.07106220405075 18.209751075658613 52985.87076359562 0.10437890807582363 0.017509137377194058
-0.0370133614178292 -3.3271699394917857 1.7459663226974669 0.9992134462360027 0.14064626236774277 0.06944554986875222 0.3000766406357584 227.88276333589528
